lris_clarify/Iris_model.pkl (torch, 2527 bytes, 4 tensors)

weight f4 [3, 4]
0	0x3d24ef90	0.040267527
1	0xbe6677b8	-0.22506607
2	0xbe5dc050	-0.21655393
3	0x3e2b78fc	0.1674537
4	0xbeceaf62	-0.4036818
5	0xbc073d80	-0.008254409
6	0x3ecfc0f0	0.40576887
7	0xbd136fd0	-0.035995305
8	0xbf9aa56d	-1.2081734
9	0xc073e72a	-3.8109841
10	0x4042608f	3.0371435
11	0x4114231d	9.258573

bias f4 [3]
0	0xbef4ce90	-0.47813845
1	0xbedec666	-0.4351074
2	0xc01f4543	-2.4886024

weight f4 [10, 3]
0	0xbe19a884	-0.1500569
1	0x3ea38b70	0.3194232
2	0xc0d0b6f4	-6.522333
3	0xbea317ac	-0.31853998
4	0xbf11fb9d	-0.57024556
5	0x40ee49fb	7.446531
6	0xbe22b460	-0.1588912
7	0x3e7ba5e4	0.24575001
8	0x410d7422	8.840853
9	0xbe0510e0	-0.12994719
10	0x3f04a8c2	0.51820004
11	0xc08d0330	-4.406639
12	0x3eec9ba0	0.46212482
13	0x3e8b1428	0.27163815
14	0xc08308b2	-4.0948114
15	0xbeb47b12	-0.35250145
16	0xbeda84cb	-0.42679438
17	0xc09a05d4	-4.8132114
18	0xbc987f60	-0.018615425
19	0xbe99f13c	-0.3006686
20	0xc0854675	-4.1648507
21	0x3daa0c98	0.08303183
22	0x3eae3fb2	0.3403297
23	0xc09398fd	-4.6124253
24	0x3d4fde50	0.050749123
25	0x3e42f3ec	0.19038361
26	0xc098687c	-4.7627544
27	0x3dccf9a0	0.1000855
28	0x3d408230	0.046999156
29	0xc08b517b	-4.3536963

bias f4 [10]
0	0x41118985	9.096074
1	0x40875926	4.2296324
2	0xc110bb31	-9.045701
3	0xc102b8eb	-8.170146
4	0xc0f835f6	-7.756587
5	0xc0ed9dbc	-7.4255047
6	0xc0ebb03c	-7.365263
7	0xc103ae8f	-8.230117
8	0xc0ec563e	-7.3855276
9	0xc0f82b44	-7.7552814
