mnist/network/model.pkl (torch, 117719 bytes, 6 tensors)

conv1.0.weight f4 [16, 1, 5, 5]
0	0xbdef60a0	-0.11688352
1	0xbe428a6f	-0.1899812
2	0xbe3cd748	-0.18441498
3	0xbe2840cb	-0.16430967
4	0x3e3b33ae	0.18281433
5	0xbec77d1b	-0.38962635
6	0xbea197b0	-0.3156104
7	0xbeb6eb5b	-0.35726437
8	0xbd997630	-0.074932456
9	0x3eb35164	0.35023034
10	0xbecd7661	-0.40129378
11	0xbea11632	-0.31462246
12	0xbd51c710	-0.05121523
13	0x3eaae1b6	0.3337533
14	0x3ea90852	0.3301416
15	0xbedd3252	-0.43202454
16	0xbe42ef12	-0.1903651
17	0x3e257955	0.16159566
18	0x3eb6f3dc	0.35732925
19	0x3d89ca68	0.06728059
20	0xbdf8fbc2	-0.12157394
21	0x3de3e470	0.11127555
22	0x3ebf2707	0.37334463
23	0x3dde9db9	0.10869927
24	0xbc92b516	-0.017908614
25	0x3dd6ab5f	0.10481905
26	0x3e76a62c	0.24086827
27	0xbd330210	-0.04370314
28	0xbeb2f899	-0.3495529
29	0x3d191cb0	0.037380874
30	0xbc4fc2de	-0.012680737
31	0x3eba27cd	0.3635849
32	0xbd2386f6	-0.03992363
33	0xbf08e4b5	-0.5347398
34	0xbc812fc2	-0.015769843
35	0x3ea0e75b	0.3142651
36	0x3e6ce48d	0.2313406
37	0xbe85332b	-0.260156
38	0xbef5fab7	-0.48042843
39	0xbca43e66	-0.020049285
40	0x3e762eef	0.24041341
41	0x3e5aaacc	0.21354216
42	0xbe1425c5	-0.14467533
43	0xbea2ee8a	-0.31822616
44	0xbdf1f687	-0.118145995
45	0x3e0d9c23	0.13829093
46	0x3db8f5ce	0.090312585
47	0x3e5d675c	0.2162146
48	0xbdcdb881	-0.10044957
49	0x3d4bb113	0.049729418
50	0x3ea73677	0.3265874
51	0x3d77ca78	0.060495824
52	0xbdb814c2	-0.08988334
53	0x3d260872	0.040535398
54	0xbccb1352	-0.024789486
55	0x3e1e40a5	0.15454347
56	0xbefb23b8	-0.4905069
57	0xbec6d1dc	-0.38831985
58	0xbe748cc7	-0.23881827
59	0x3d3d1d06	0.046170257
60	0xbec3629c	-0.3816117
61	0xbebbbc11	-0.3666692
62	0x3e127aa6	0.14304599
63	0x3e2fe4d1	0.1717713
64	0x3e375ad5	0.17905743
65	0x3e098c85	0.1343251
66	0x3ed0c892	0.40778023
67	0x3e9dacc4	0.30795872
68	0xbc4ae380	-0.012383342
69	0x3e6ff1f7	0.23432146
70	0x3d9db35d	0.077002265
71	0x3dd070c5	0.10177759
72	0xbdaf7fdf	-0.08569311
73	0xbb92467c	-0.004463969
74	0x3c7e912f	0.015537544
75	0x3d3ea5c7	0.046544816
76	0xbe9e6573	-0.30936775
77	0xbda2c4a9	-0.07947666
78	0xbd8c30cb	-0.06845244
79	0xbdac9f18	-0.08428782
80	0x3e7c4161	0.24634315
81	0x3dbc786a	0.09202655
82	0x3e73dd4e	0.2381489
83	0x3e796da1	0.24358226
84	0x3e061769	0.13094868
85	0xbce2ff7e	-0.027709719
86	0x3e34d844	0.17660624
87	0x3e0ef276	0.13959679
88	0x3c01c3dc	0.007920232
89	0x3e1a876a	0.15090719
90	0xbd4ec8cc	-0.050484464
91	0xbe41f5ea	-0.18941465
92	0x3ca0abbd	0.019613141
93	0x3a02c715	0.0004988772
94	0x3e03b018	0.12860143
95	0xbe8c7ce9	-0.2743905
96	0xbed02570	-0.40653563
97	0xbea2d4e8	-0.3180306
98	0xbe972a42	-0.29524428
99	0x3c5aeaf0	0.0133616775
100	0xbdc7e943	-0.09761288
101	0xbe53f2f6	-0.20698151
102	0xbe3e1e07	-0.18566142
103	0x3e58e678	0.21181667
104	0x3e0cb251	0.13739897
105	0x3e9ce8df	0.30646417
106	0x3e8ca7db	0.27471814
107	0x3d9eb61a	0.07749577
108	0x3dca4142	0.09875728
109	0x3d0ad3d4	0.03389342
110	0xbe33e139	-0.17566384
111	0x3dbed551	0.093180306
112	0xbb9fb535	-0.0048738965
113	0x3e833f3d	0.25634184
114	0x3ded603d	0.115906216
115	0xbe695e7d	-0.2278995
116	0xbe86942b	-0.26284918
117	0xbe0ba066	-0.13635406
118	0x3d0ab494	0.03386362
119	0x3e35caed	0.17753191
120	0xbeafb017	-0.34314033
121	0xbe7f12bf	-0.24909495
122	0xbe155ec5	-0.14586933
123	0x3e71febd	0.23632331
124	0xbdecc7a6	-0.115615174
125	0xbd6167ce	-0.055030636
126	0x3e8ab860	0.27093792
127	0x3e949d57	0.2902629
128	0xbeb40b93	-0.3516508
129	0xbef492fb	-0.47768387
130	0xbe37cbc5	-0.17948826
131	0xbd162c46	-0.036663316
132	0x3ec8cecf	0.39220282
133	0x3d6b3fc0	0.057433844
134	0xbe96437c	-0.29348361
135	0xbe9e58e8	-0.30927205
136	0x3ce79e96	0.028273862
137	0xbbd8ae2b	-0.0066125593
138	0x3e417eab	0.18895976
139	0xbe06262d	-0.131005
140	0xbe8d0d33	-0.27549133
141	0x3e0d4089	0.1379415
142	0x3e3ec5cb	0.1863014
143	0x3e011cce	0.12608644
144	0x3d7b7b36	0.0613968
145	0xbe07143f	-0.13191317
146	0x3e41a4cb	0.1891052
147	0x3e25675a	0.16152707
148	0xbe3fe866	-0.18740997
149	0xbe29e483	-0.16591077
150	0xbca3e35b	-0.020005872
151	0xbc0ad124	-0.008472715
152	0xbe94e647	-0.29081938
153	0xbed77416	-0.42080754
154	0xbec8cd7a	-0.39219266
155	0xbe21b56d	-0.15791865
156	0x3e682eef	0.22674154
157	0x3e4bbf13	0.19897108
158	0x3ddd4c87	0.10805612
159	0x3d053e5a	0.032530166
160	0x3e2f4ca1	0.17119075
161	0xbdd12030	-0.102112174
162	0x3ede95d2	0.4347368
163	0x3e0af185	0.13568695
164	0xbcfa17ca	-0.030528922
165	0xbe04d73f	-0.12972735
166	0xbea7367d	-0.3265876
167	0x3c82603f	0.015915034
168	0xbe317007	-0.17327891
169	0x3e4a6a11	0.19767024
170	0xbebd41b9	-0.36964205
171	0xbda72799	-0.081618495
172	0x3e0d6946	0.1380969
173	0x3d06f9c5	0.032953043
174	0x3e34b191	0.17645861
175	0x3e30b05d	0.17254777
176	0x3ec08bfe	0.37606806
177	0x3ea5347b	0.32266602
178	0xbe0c6486	-0.13710222
179	0xbee78fb7	-0.45226833
180	0xbd57aa3e	-0.05265259
181	0x3e9a7906	0.3017046
182	0x3e370e8d	0.17876644
183	0x3df102be	0.11768101
184	0xbee99907	-0.45624563
185	0xbedad7ad	-0.42742673
186	0x3d200a78	0.039072484
187	0x3eea166e	0.45720237
188	0x3ecd6b52	0.4012094
189	0xbe22b0c6	-0.15887746
190	0xbf339fdd	-0.70165807
191	0xbead4188	-0.3383906
192	0x3e5c343a	0.21504298
193	0x3e41d31e	0.18928191
194	0x3e0a8708	0.13528073
195	0xbe02f774	-0.12789708
196	0xbeb34090	-0.35010195
197	0xbe791b08	-0.24326718
198	0x3e2abb29	0.16672958
199	0x3e8398c4	0.25702488
200	0x3cbad9af	0.022808878
201	0xbde152a1	-0.11002088
202	0x3e148842	0.14505103
203	0xbe268e04	-0.16265112
204	0xbeb7258d	-0.35770836
205	0xbd42fe50	-0.047605813
206	0x3e7a5438	0.2444619
207	0x3e5e0b8c	0.21684092
208	0xbdd7709e	-0.10519527
209	0xbef10397	-0.4707305
210	0xbe8bc69e	-0.2729997
211	0x3ead0394	0.33791792
212	0xbd80c7b4	-0.0628809
213	0xbd45db33	-0.048304748
214	0x3cc0333e	0.023461934
215	0x3da922b5	0.08258573
216	0x3e98a35d	0.29812136
217	0xbdee9c53	-0.1165091
218	0x3d89713e	0.06711052
219	0xbd31b4e9	-0.04338542
220	0xbe11f5aa	-0.1425387
221	0x3e4f08d8	0.20218217
222	0x3e9bd2b9	0.30434206
223	0xbda2f88c	-0.07957563
224	0x3daccf04	0.084379226
225	0x3e4f643d	0.20253082
226	0xbd99e384	-0.07514098
227	0xbe4ab304	-0.19794852
228	0xbeaae038	-0.3337419
229	0xbd4c9ec0	-0.049956083
230	0xbda87aeb	-0.0822657
231	0x3de8b96f	0.11363494
232	0x3dcbfba0	0.09960103
233	0xbe66d686	-0.22542772
234	0x3dbb3e31	0.091427214
235	0x3e1683f5	0.14698775
236	0x3eabda42	0.33564955
237	0x3edc56e9	0.43035057
238	0x3e568abf	0.20951365
239	0x3c94da8d	0.01817062
240	0xbe80f1eb	-0.2518457
241	0xbb9dee12	-0.00481964
242	0xbc3e5af7	-0.011618367
243	0x3e11c5ac	0.14235562
244	0x3c947b75	0.018125275
245	0xbe685ffe	-0.22692868
246	0xbe91b522	-0.28458506
247	0xbd9398cd	-0.07206879
248	0xbe086f83	-0.13323788
249	0x3e13a954	0.14420062
250	0xbe8e383d	-0.2777728
251	0xbe950a2a	-0.29109317
252	0xbea67eac	-0.32518518
253	0xbf056eb6	-0.52122056
254	0xbec1d318	-0.37856364
255	0xbd86dbfd	-0.06584928

conv1.0.bias f4 [16]
0	0xbde33d91	-0.11095727
1	0x3d1a7520	0.037709355
2	0xbe2cd6b1	-0.16878773
3	0xbc1f8e7d	-0.009738562
4	0xbe04d5f5	-0.12972243
5	0xbe0d8cba	-0.13823214
6	0xbcb0f4ab	-0.021601042
7	0xbdd4aef7	-0.103849344
8	0xbd842bd2	-0.064536706
9	0xbe07f688	-0.13277638
10	0x3d81816c	0.063235134
11	0xbdbab445	-0.09116415
12	0xbe9b9b07	-0.30391714
13	0xbc9fd540	-0.019510865
14	0x3d2ad588	0.041707546
15	0x3d34d1a9	0.04414526

conv2.0.weight f4 [32, 16, 5, 5]
0	0x3e4e1253	0.20124178
1	0x3d43cab4	0.047800735
2	0xbbccf585	-0.006254854
3	0xbd14b9eb	-0.036310118
4	0x3cfaa4e1	0.030596199
5	0x3c99e4c8	0.01878585
6	0xbc3da0ca	-0.01157398
7	0xbceb0d7d	-0.028692955
8	0x3cd44e50	0.025916249
9	0xbc702f8f	-0.014659776
10	0x3d99264f	0.0747801
11	0x3c1452a7	0.009052909
12	0x3d5a52ef	0.053301748
13	0xbe11d155	-0.1424001
14	0xbe587237	-0.2113732
15	0x3d89787f	0.06712436
16	0xbd87b333	-0.066259764
17	0xbdf199ec	-0.117969364
18	0xbded8ff9	-0.11599726
19	0xbe7e2472	-0.2481859
20	0x3e035892	0.12826756
21	0x3da83e40	0.08214998
22	0x3dc3d5f2	0.09562291
23	0x3da435ef	0.080180995
24	0x3d1e1a81	0.038599495
25	0x3d371f8e	0.044707827
26	0xbd1fb5b6	-0.038991652
27	0x3c84adc5	0.016196141
28	0xbdb1d1b0	-0.08682573
29	0xbd55c12e	-0.052186184
30	0x3c10768b	0.008817325
31	0xbc2acda6	-0.010425007
32	0x3c4df7b2	0.012571262
33	0x3d4fd97f	0.05074453
34	0xbc971c0d	-0.018445993
35	0xbd57ec6c	-0.052715704
36	0xbe0de2e3	-0.13856082
37	0xbd9967a4	-0.07490471
38	0xbd2d22df	-0.042269584
39	0x3e0d76ac	0.13814801
40	0x3deb4a67	0.114888005
41	0xbd35169a	-0.044211008
42	0xbd909588	-0.07059771
43	0xbd1a88f2	-0.037728257
44	0x3ce0c39e	0.027437028
45	0x3dfafc6e	0.122551784
46	0x3a1ecffc	0.0006058214
47	0xbe303bde	-0.17210338
48	0xbd6e1557	-0.05812582
49	0xbd358ac3	-0.044321787
50	0x3dbaad02	0.0911503
51	0x3e49fb08	0.19724667
52	0x3d9efcfa	0.07763095
53	0xbc0f3d75	-0.00874268
54	0x3db14ba5	0.08657006
55	0x3e027fc1	0.12744047
56	0x3e0d4c5c	0.1379866
57	0x3d246d2d	0.04014318
58	0x3e15dd80	0.14635277
59	0x3e5576ce	0.20846102
60	0xbdcdf013	-0.10055556
61	0xbce2b60a	-0.027674694
62	0x3d860720	0.06544328
63	0xbd1a90de	-0.037735812
64	0xbced6256	-0.028977554
65	0xbe931194	-0.2872435
66	0xbe4c21e8	-0.19934809
67	0xbda19c67	-0.078911595
68	0xbd2b11e1	-0.041765098
69	0xbdc5101f	-0.096222155
70	0xbde19c34	-0.110161215
71	0x3cc7c6ab	0.024386724
72	0x3e211898	0.15732038
73	0x3e3c30fc	0.18378061
74	0xbd80f78f	-0.06297218
75	0xbe2cf03b	-0.16888516
76	0xbe32c27c	-0.17457002
77	0xbe003c71	-0.12523057
78	0xbe4cb861	-0.1999221
79	0xbd35efab	-0.04441802
80	0xbc627413	-0.01382162
81	0x3d4e1e1c	0.050321683
82	0xbd8bc5ba	-0.06824823
83	0xbdac5b46	-0.084158465
84	0xbdf7019a	-0.12060852
85	0x3b272fec	0.0025510741
86	0x3e233820	0.15939379
87	0x3e5ba26b	0.21448676
88	0x3d87a48a	0.0662318
89	0xb8ed01eb	-0.00011301398
90	0xbe8506e2	-0.25981814
91	0xbde4f624	-0.1117976
92	0x3dc3b230	0.09555471
93	0x3e3a6860	0.18203878
94	0x3d5adf81	0.053435806
95	0x3cc38ea1	0.023871722
96	0xbe40cb8f	-0.18827651
97	0xbeaf9883	-0.34296045
98	0xbe2c4196	-0.16821894
99	0xbd3f9d2a	-0.046780743
100	0xbd2ed7b2	-0.04268617
101	0xbe25dcc1	-0.16197492
102	0xbe2fa947	-0.17154418
103	0xbdc2d770	-0.09513748
104	0xbe0c6c75	-0.13713248
105	0x3debd0ac	0.115144104
106	0x3dad4578	0.08460516
107	0x3cc40a04	0.023930557
108	0xbe0dd56b	-0.13850944
109	0xbe648a08	-0.2231828
110	0x3cb4e867	0.022083474
111	0x3d9489d8	0.07252854
112	0x3e1e2200	0.15442657
113	0x3dba9613	0.09110656
114	0x3ccc3330	0.024926752
115	0xbe26f992	-0.16306141
116	0xbd8528dc	-0.06501934
117	0x3dc30d06	0.095239684
118	0x3e3d5b59	0.18491878
119	0x3e5deba6	0.21671924
120	0x3d140e4d	0.03614645
121	0xbdf8b0da	-0.12143107
122	0xbe3cc97e	-0.18436238
123	0xbe255b85	-0.16148193
124	0xbba5333f	-0.0050415094
125	0xbd85eaf2	-0.06538953
126	0x3bd60fd5	0.006532649
127	0xbd3e8bc9	-0.04652003
128	0xbb713563	-0.0036805503
129	0x3d2308c8	0.039803296
130	0xbd94f1e1	-0.07272697
131	0x3db0282a	0.08601411
132	0xbd71c7bd	-0.059028376
133	0xbbcda4d4	-0.0062757526
134	0xbd9279f1	-0.07152165
135	0xbe2aba73	-0.16672687
136	0x3de577f9	0.112045236
137	0x3daa6aa3	0.083211206
138	0x3c829fad	0.01594528
139	0xbd5b44d3	-0.053532433
140	0xbedac248	-0.4272635
141	0xbd052c39	-0.032512877
142	0x3ddd7a7a	0.10814376
143	0x3e499dd8	0.19689119
144	0x3e0c6283	0.13709454
145	0xbcd3ad8d	-0.025839591
146	0xbc6e2fb4	-0.0145377405
147	0xbceec827	-0.029148174
148	0x3d793673	0.060842942
149	0x3dfb04c7	0.122567706
150	0xbe145b79	-0.14488019
151	0xbe0f1f50	-0.13976789
152	0xbd9022e6	-0.07037906
153	0xbb5c51d6	-0.0033618114
154	0xbdcef29e	-0.10104869
155	0xbc9af31f	-0.018914757
156	0xbd1eba66	-0.038751982
157	0x3c9961ce	0.018723395
158	0xbdc1768b	-0.094464384
159	0x3dda59d0	0.106616616
160	0xbba2fcaa	-0.0049739676
161	0x3dc17558	0.0944621
162	0x3e0946a3	0.13405852
163	0x3df3ef08	0.11910826
164	0xb9d7dfda	-0.00041174778
165	0xbe555857	-0.2083448
166	0x3ddce139	0.10785145
167	0xbc56b6e0	-0.013105124
168	0x3e2f9652	0.17147186
169	0x3e3f2241	0.1866541
170	0x3e32dc86	0.17466936
171	0x3e5dcf85	0.21661194
172	0xbdc8fe5d	-0.09814141
173	0xbdc29b71	-0.09502304
174	0xbd963a57	-0.07335346
175	0xbd566293	-0.0523401
176	0xbd1d8eb4	-0.03846617
177	0xbe634497	-0.22194134
178	0xbe95671a	-0.29180223
179	0xbe99fa06	-0.30073565
180	0xbd493c45	-0.049129743
181	0x3da1c8cc	0.07899627
182	0x3d5ae15a	0.05343757
183	0xbde21cd9	-0.110406585
184	0xbe752d11	-0.23942973
185	0x3e2cd136	0.16876683
186	0x3e198306	0.14991388
187	0x3e651ac1	0.22373487
188	0x3e714386	0.23560914
189	0x3c4e8596	0.012605092
190	0xbe4cd88d	-0.20004483
191	0x3d3345a5	0.04376759
192	0x3e3ffe2c	0.18749303
193	0x3ecbc8d1	0.39801648
194	0x3eb6e4c8	0.3572142
195	0x3df0080c	0.11720285
196	0x3e2e553f	0.17024706
197	0xbe19f659	-0.1503538
198	0xbe341cbb	-0.17589085
199	0x3d870298	0.065922916
200	0x3d0684c5	0.032841463
201	0x3c02e28d	0.007988584
202	0xbc8bd183	-0.017067676
203	0xbc1d77c5	-0.009611075
204	0x3bef8911	0.0073100408
205	0xbd2028d9	-0.039101455
206	0x3dc534ce	0.09629212
207	0x3ba96a95	0.0051701763
208	0x3dabe8c0	0.08394003
209	0x3c5aa520	0.013345033
210	0xbe95f789	-0.29290417
211	0xbcc1d8c6	-0.023662936
212	0x3e124596	0.14284357
213	0x3dbe4021	0.09289575
214	0x3db356d3	0.08756795
215	0xbe87990c	-0.26483953
216	0xbe8fedc0	-0.28111076
217	0xbde93117	-0.11386316
218	0xbdbe8436	-0.09302561
219	0x3d653258	0.055956215
220	0x3d73552a	0.05940739
221	0xbde38399	-0.11109085
222	0xbd65c3e5	-0.056095023
223	0xbd979989	-0.074023314
224	0xbd27e10d	-0.04098611
225	0xbe1910e2	-0.14947847
226	0xbc899ac0	-0.016797423
227	0xbbcf14dc	-0.0063196253
228	0xbdc1c8a3	-0.094620965
229	0xbe4e2da4	-0.20134598
230	0x3d278d87	0.040906455
231	0xbd652b16	-0.055949293
232	0x3c7f79a7	0.015592969
233	0xbcf93d6f	-0.030424802
234	0x3d03b09c	0.03215085
235	0xbda2413d	-0.079225995
236	0x3e2158b5	0.15756495
237	0x3e163dcd	0.14672013
238	0x3dca7108	0.0988484
239	0x3e2d86ad	0.16945906
240	0xbe4caeaa	-0.19988504
241	0xbd91ddae	-0.0712236
242	0xbc2320f9	-0.009956592
243	0x3dc4d746	0.09611373
244	0x3e6cc5d2	0.23122337
245	0x3c83712e	0.01604518
246	0xbd21872e	-0.039435558
247	0xbddc9bb7	-0.10771888
248	0xbe3f67dc	-0.18691963
249	0xbd79cfde	-0.060989253
250	0xbd356fe3	-0.044296157
251	0x3c7d58a0	0.015463024
252	0x3d5890be	0.052872412
253	0x3d26568f	0.040609892
254	0x3c79023d	0.015198288
255	0x3dd5f6c6	0.10447459

conv2.0.bias f4 [32]
0	0xbdf95ed9	-0.12176294
1	0xbd65c5c8	-0.056096822
2	0xbd408394	-0.047000483
3	0xbd31cb27	-0.04340663
4	0xbd8e651a	-0.06952877
5	0xbe38afe6	-0.1803585
6	0xbd457c31	-0.04821414
7	0xbbfe87f2	-0.007767671
8	0xbe12542a	-0.14289919
9	0x3b866fac	0.004102668
10	0xbe33ab26	-0.17545757
11	0xbdf218d9	-0.118211456
12	0xbc90bcb7	-0.017668111
13	0xbdd6128c	-0.10452756
14	0xbcaeace0	-0.021322668
15	0xbcedbb4f	-0.02901998
16	0xbc976083	-0.018478638
17	0xbdeacf6d	-0.114653446
18	0xbde6b8c2	-0.112657085
19	0xbd4b3ab0	-0.049616516
20	0xbcf64dc4	-0.030066378
21	0xbd5fd6fe	-0.054648392
22	0xbbbf2026	-0.00583269
23	0xbd427e2d	-0.04748361
24	0xbcd5b28e	-0.026086118
25	0xbe765eee	-0.2405965
26	0xbe0c2201	-0.13684846
27	0xbd9b3430	-0.07578313
28	0xbe025f7d	-0.12731738
29	0xbcfc3791	-0.030788215
30	0xbddadf5f	-0.10687136
31	0xbd22484c	-0.03961973

out.weight f4 [10, 1568]
0	0xbe174264	-0.1477142
1	0xbde5393d	-0.11192558
2	0x3d8b6b05	0.06807522
3	0xbdba37bf	-0.09092664
4	0xbe541e99	-0.20714797
5	0x3cd3c617	0.025851293
6	0x3db0bdc7	0.08629947
7	0xbc3f49f8	-0.01167535
8	0xbcb59546	-0.022165906
9	0xbdf9ff12	-0.12206854
10	0x3d793490	0.060841143
11	0x3dd0afaa	0.10189755
12	0x3d6ec656	0.058294617
13	0x3d57d36b	0.05269186
14	0xbced1429	-0.028940277
15	0xbd7f10d4	-0.062271908
16	0xbc3888fa	-0.0112631265
17	0x3db9c83c	0.09071395
18	0x3db0613d	0.08612297
19	0x3c3993a1	0.011326701
20	0x3cda76ea	0.02666803
21	0x3d0287b5	0.0318677
22	0xbe0e5358	-0.1389898
23	0xbe773a6e	-0.24143383
24	0xbe4d0321	-0.20020725
25	0x3d0b0efc	0.033949837
26	0x3d79b8f7	0.06096741
27	0xbec19f6b	-0.3781694
28	0x3c6df504	0.014523748
29	0x3d090231	0.033449356
30	0xbd698491	-0.05701119
31	0xbda26ab8	-0.07930511
32	0xbde28747	-0.11060958
33	0xbe4244bf	-0.18971537
34	0xbcf1d12d	-0.029518688
35	0x3d8ffe76	0.070309564
36	0x3cbb70ac	0.022880875
37	0x3c083b2c	0.008314889
38	0x3dc07647	0.093975596
39	0xbceecf24	-0.029151507
40	0xbdab52f4	-0.083654314
41	0xbd8a54f4	-0.06754485
42	0xbcd66f1e	-0.026176032
43	0x3d99198c	0.07475576
44	0xbd8ef2e1	-0.06979919
45	0xbe02c329	-0.1276976
46	0xbc2b13ef	-0.010441764
47	0xbe03050e	-0.12794897
48	0x3d8da92f	0.06917035
49	0xbcc6cf9f	-0.024268923
50	0xbdbbe224	-0.09173992
51	0xbdb34706	-0.08753781
52	0x3c369fbb	0.011146481
53	0xbda9857b	-0.082774125
54	0xbc8d35bd	-0.017237538
55	0xbe24827e	-0.16065404
56	0xbdf88990	-0.12135613
57	0xbd2f6ad9	-0.042826507
58	0xbd19cfaf	-0.037551578
59	0xbd0d036e	-0.0344271
60	0xbd9e49ba	-0.07728906
61	0xbdf1efa4	-0.11813286
62	0xbe6b0d07	-0.22954188
63	0x3dcc2898	0.0996868
64	0x3dad0fa4	0.08450249
65	0xbca3f206	-0.020012867
66	0x3d96ebdb	0.073692046
67	0xbac17c1f	-0.0014761722
68	0x3e3d5dfd	0.18492885
69	0x3c620abf	0.013796507
70	0x3d4a6cef	0.049420293
71	0x3c3b2a36	0.011423638
72	0x3c638fcb	0.013889263
73	0xbd8408ad	-0.06446967
74	0x3d3e4a0a	0.046457328
75	0x3e1e380e	0.1545107
76	0x3d9a5f7c	0.075377434
77	0xbcd9e1b5	-0.026596883
78	0x3c0c0e35	0.008548309
79	0xbda9d02f	-0.08291661
80	0xbd91431c	-0.07092878
81	0xbe068900	-0.13138199
82	0xbd84809f	-0.06469845
83	0xbe220da0	-0.1582551
84	0xbc3efc86	-0.011656886
85	0xbd9eb076	-0.07748501
86	0x3e27d1e8	0.16388667
87	0x3d656a51	0.056009594
88	0xbdb2b7a3	-0.08726432
89	0x3daf3b26	0.085562035
90	0x3ae7e41f	0.0017691887
91	0xbd8c13fa	-0.06839748
92	0xbcb8444f	-0.02249351
93	0x3d1c69e7	0.038186934
94	0xbd146797	-0.036231603
95	0xbea8c282	-0.32960898
96	0xbeaf1c23	-0.34201154
97	0xbea5417b	-0.3227652
98	0xbd2e36fd	-0.04253291
99	0xbe0e4d59	-0.13896693
100	0xbdbc93b0	-0.09207857
101	0x3c9083d6	0.01764099
102	0x3aa0e9d3	0.0012276716
103	0x3b9a98db	0.004717929
104	0xb994659a	-0.0002830446
105	0xbe4b64c5	-0.1986266
106	0xbd1b5620	-0.037923932
107	0x3e0914fa	0.13386908
108	0x3c7dfdd0	0.015502408
109	0xbaeece1e	-0.0018219387
110	0xbe13db3a	-0.14439097
111	0xbbd91aa4	-0.0066254903
112	0xbd1b839b	-0.037967306
113	0xbd7d5d47	-0.061856534
114	0x3e4f6edb	0.20257132
115	0x3d695efc	0.05697535
116	0xbe754c8c	-0.23954982
117	0xbdacba6b	-0.08433994
118	0xbe172aef	-0.14762472
119	0x3de60bd7	0.11232727
120	0xbc9804cd	-0.018556977
121	0x3e565e25	0.20934351
122	0xbddc3aa6	-0.10753374
123	0xbc452d9c	-0.0120348
124	0x3d526e9a	0.05137501
125	0xbc83b403	-0.016077047
126	0x3c136dd2	0.008998351
127	0xbe28fab9	-0.16501893
128	0xbd5c43d6	-0.05377563
129	0x3d008d68	0.031384856
130	0xbccde56f	-0.025133817
131	0x3d776d32	0.06040687
132	0x3e2bd272	0.16779497
133	0xbdcafa33	-0.09911003
134	0xbe5eab4b	-0.2174503
135	0xbe4f9721	-0.20272495
136	0xbd832d77	-0.06405156
137	0x3d6c92fa	0.057757355
138	0x3dc048c7	0.09388881
139	0x3d1df8a1	0.03856719
140	0xbe3010a6	-0.17193851
141	0xbe7febb1	-0.24992253
142	0xbe7ddfc6	-0.24792394
143	0xbcf493ac	-0.029855572
144	0xbd080277	-0.033205476
145	0x3b80beb6	0.0039289845
146	0xbe279b87	-0.16367923
147	0x3b54a0c2	0.0032444452
148	0xbdd76cf7	-0.1051883
149	0x3ce22067	0.027603341
150	0xbd9627df	-0.073318236
151	0xbe19a07d	-0.15002628
152	0xbdfac5cb	-0.12244757
153	0xbca94cfa	-0.020666588
154	0x3d1ecbef	0.038768705
155	0xbd928ab4	-0.07155362
156	0x3c3388f2	0.010957943
157	0x3dfccdf0	0.12343967
158	0xbd8daa0d	-0.069172
159	0x3e19530d	0.14973088
160	0x3d9d4dcc	0.07680854
161	0x3dbec5e5	0.09315089
162	0x3d4547b6	0.048164092
163	0x3df133c5	0.117774524
164	0xbe0493bb	-0.1294698
165	0xbe51bc0b	-0.20481889
166	0x3d9a1971	0.07524384
167	0x3c156fb2	0.0091208685
168	0xbd359608	-0.044332534
169	0xbd103ccf	-0.03521424
170	0xbe43713b	-0.19086163
171	0xbe7d069a	-0.2470955
172	0x3d865867	0.0655983
173	0x3d9c9316	0.07645242
174	0xbdbf1396	-0.093299076
175	0x3ce18692	0.027529988
176	0xbe15f4d7	-0.1464418
177	0xbe785302	-0.24250415
178	0xbecc4a61	-0.39900497
179	0xbdcd527d	-0.10025499
180	0xbcdb0c30	-0.02673921
181	0xbe385ac5	-0.18003376
182	0x3ca8a67d	0.0205872
183	0xbc0eab20	-0.008707792
184	0xbd0d69a8	-0.03452459
185	0xbd9bb78c	-0.07603368
186	0x3d471e15	0.048612673
187	0xbc9f6319	-0.019456433
188	0xbddaa418	-0.1067583
189	0xba58a3fb	-0.0008264181
190	0x3dbe31bf	0.09286832
191	0x3cf1d43c	0.029520147
192	0x3caa119e	0.020760354
193	0xbcc76e4a	-0.024344582
194	0xbd8c2726	-0.068434045
195	0xbe0efa8e	-0.13962767
196	0xbdba09dd	-0.090839125
197	0xbdcf2603	-0.10114672
198	0x3c01a102	0.007911922
199	0xbd07ea78	-0.03318259
200	0xbd8b034e	-0.0678774
201	0x3cf76762	0.030200664
202	0xbe574175	-0.21021064
203	0xbc60b793	-0.0137156425
204	0xbc0fe77e	-0.008783219
205	0xbd4f5f6f	-0.050628122
206	0xbccd7173	-0.02507851
207	0xbdf4202d	-0.119201995
208	0xbe519117	-0.20465504
209	0xbe44a9ee	-0.19205448
210	0x3bda7e04	0.0066678543
211	0x3cbdaafd	0.023152823
212	0x3c4fae80	0.012675881
213	0x3dd6c86b	0.104874454
214	0x3d6f8d72	0.058484502
215	0x3e183efd	0.14867778
216	0x3e011338	0.12604988
217	0x3dcce0ad	0.10003791
218	0x3d850c8f	0.06496536
219	0x3df4544c	0.11930141
220	0x3dde5897	0.10856741
221	0x3dade2b7	0.08490508
222	0x3d70e1f8	0.05880925
223	0xbb9aefbc	-0.0047282856
224	0x3d2e2d80	0.04252386
225	0x3db514ce	0.08841859
226	0x3dffa817	0.124832325
227	0xbe0b3255	-0.13593419
228	0xbc82ea18	-0.015980765
229	0x3ddc97ba	0.10771127
230	0x3d0f2578	0.034947842
231	0x3b959242	0.0045645544
232	0x3d90fbaa	0.07079251
233	0xbe000690	-0.12502503
234	0xbed5e71c	-0.41777885
235	0xbe5daf99	-0.21649016
236	0xbd8de5e2	-0.06928612
237	0x3c2a4cee	0.010394318
238	0x3d72c4db	0.059269767
239	0x3dfbf9fc	0.1230354
240	0xbe0440e0	-0.12915373
241	0xbeb45fb5	-0.3522927
242	0xbe61025c	-0.21973556
243	0x3c158e69	0.0091281915
244	0x3dd8fd7b	0.105952226
245	0x3c5af620	0.013364345
246	0xbdc6b560	-0.09702563
247	0xbe0e802a	-0.13916078
248	0x3e181042	0.14849952
249	0xbd72a4f0	-0.059239328
250	0xbca0d491	-0.01963261
251	0x3d7388c7	0.059456613
252	0xbc8ccd4d	-0.017187739
253	0xbe962f95	-0.29333177
254	0xbca13b7d	-0.019681687
255	0x3d505c32	0.050869174

out.bias f4 [10]
0	0x3d8ab46d	0.06772695
1	0x3c2bc277	0.010483376
2	0x3c0a96e6	0.008458829
3	0xbc539eed	-0.012916309
4	0xbd189646	-0.037252687
5	0x3d54eb14	0.051982
6	0xbd23be45	-0.039976377
7	0xbd5a1d4e	-0.053250603
8	0x3c278d1c	0.010226514
9	0x3b274bdf	0.00255274
